…
de_model.add(GlobalMaxPooling1D())# same as max poolin which help in reducing the dimension of the array
de_model.add(Dense(128, activation='relu')) # dense layer for producing the output
de_model.add(Dropout(0.2))
de_model.add(Dense(5, activation='sigmoid')) # the filter is same as the numebr of features available in the dataset
de_model.summary() #summary of the model designed 
Model: "sequential"
_________________________________________________________________
 Layer (type)                Output Shape              Param #   
=================================================================
 embedding (Embedding)       (None, 25, 80)            960000    
                                                                 
 dropout (Dropout)           (None, 25, 80)            0         
                                                                 
 conv1d (Conv1D)             (None, 13, 64)            15424     
                                                                 
 global_max_pooling1d (Globa  (None, 64)               0         
 lMaxPooling1D)                                                  
                                                                 
 dense (Dense)               (None, 128)               8320      
                                                                 
 dropout_1 (Dropout)         (None, 128)               0         
                                                                 
 dense_1 (Dense)             (None, 5)                 645       
                                                                 
=================================================================
Total params: 984,389
Trainable params: 984,389
Non-trainable params: 0
_________________________________________________________________
de_model.compile(optimizer='adam', loss="categorical_crossentropy", metrics=['accuracy']) #compiling the model using optimizer and loss function
…
